…
    - 500
    - 600
    - 700
    - 800
    - 900
    - 1000
    - 1100
    - 1200
  DETECTIONS_PER_IMAGE: 100
  EVAL_PERIOD: 0
  EXPECTED_RESULTS: []
  KEYPOINT_OKS_SIGMAS: []
  PRECISE_BN:
    ENABLED: false
    NUM_ITER: 200
VERSION: 2
VIS_PERIOD: 0

[32m[04/07 11:20:05 detectron2]: [0mFull config saved to ./output/fsod/finetune_dir/mobilenet_small_1x/config.yaml
[32m[04/07 11:20:05 d2.utils.env]: [0mUsing a generated random seed 7570103
[32m[04/07 11:20:08 d2.engine.defaults]: [0mModel:
FsodRCNN(
  (backbone): MobileNetV3(
    (features): Sequential(
      (0): ConvBNActivation(
        (0): Conv2d(3, 16, kernel_size=(3, 3), stride=(2, 2), padding=(1, 1), bias=False)
        (1): BatchNorm2d(16, eps=0.001, momentum=0.01, affine=True, track_running_stats=True)
      )
      (1): InvertedResidual(
        (block): Sequential(
          (0): ConvBNActivation(
            (0): Conv2d(16, 16, kernel_size=(3, 3), stride=(2, 2), padding=(1, 1), groups=16, bias=False)
            (1): BatchNorm2d(16, eps=0.001, momentum=0.01, affine=True, track_running_stats=True)
          )
          (1): SqueezeExcitation(
            (fc1): Conv2d(16, 8, kernel_size=(1, 1), stride=(1, 1))
            (fc2): Conv2d(8, 16, kernel_size=(1, 1), stride=(1, 1))
          )
          (2): ConvBNActivation(
            (0): Conv2d(16, 16, kernel_size=(1, 1), stride=(1, 1), bias=False)
            (1): BatchNorm2d(16, eps=0.001, momentum=0.01, affine=True, track_running_stats=True)
          )
        )
      )
      (2): InvertedResidual(
        (block): Sequential(
          (0): ConvBNActivation(
            (0): Conv2d(16, 72, kernel_size=(1, 1), stride=(1, 1), bias=False)
            (1): BatchNorm2d(72, eps=0.001, momentum=0.01, affine=True, track_running_stats=True)
          )
          (1): ConvBNActivation(
            (0): Conv2d(72, 72, kernel_size=(3, 3), stride=(2, 2), padding=(1, 1), groups=72, bias=False)
            (1): BatchNorm2d(72, eps=0.001, momentum=0.01, affine=True, track_running_stats=True)
          )
          (2): ConvBNActivation(
            (0): Conv2d(72, 24, kernel_size=(1, 1), stride=(1, 1), bias=False)
            (1): BatchNorm2d(24, eps=0.001, momentum=0.01, affine=True, track_running_stats=True)
          )
        )
      )
      (3): InvertedResidual(
        (block): Sequential(
          (0): ConvBNActivation(
            (0): Conv2d(24, 88, kernel_size=(1, 1), stride=(1, 1), bias=False)
            (1): BatchNorm2d(88, eps=0.001, momentum=0.01, affine=True, track_running_stats=True)
          )
          (1): ConvBNActivation(
            (0): Conv2d(88, 88, kernel_size=(3, 3), stride=(1, 1), padding=(1, 1), groups=88, bias=False)
            (1): BatchNorm2d(88, eps=0.001, momentum=0.01, affine=True, track_running_stats=True)
          )
          (2): ConvBNActivation(
            (0): Conv2d(88, 24, kernel_size=(1, 1), stride=(1, 1), bias=False)
            (1): BatchNorm2d(24, eps=0.001, momentum=0.01, affine=True, track_running_stats=True)
          )
        )
      )
      (4): InvertedResidual(
        (block): Sequential(
          (0): ConvBNActivation(
            (0): Conv2d(24, 96, kernel_size=(1, 1), stride=(1, 1), bias=False)
            (1): BatchNorm2d(96, eps=0.001, momentum=0.01, affine=True, track_running_stats=True)
          )
          (1): ConvBNActivation(
            (0): Conv2d(96, 96, kernel_size=(5, 5), stride=(2, 2), padding=(2, 2), groups=96, bias=False)
            (1): BatchNorm2d(96, eps=0.001, momentum=0.01, affine=True, track_running_stats=True)
          )
          (2): SqueezeExcitation(
            (fc1): Conv2d(96, 24, kernel_size=(1, 1), stride=(1, 1))
            (fc2): Conv2d(24, 96, kernel_size=(1, 1), stride=(1, 1))
          )
          (3): ConvBNActivation(
            (0): Conv2d(96, 40, kernel_size=(1, 1), stride=(1, 1), bias=False)
            (1): BatchNorm2d(40, eps=0.001, momentum=0.01, affine=True, track_running_stats=True)
          )
        )
      )
      (5): InvertedResidual(
        (block): Sequential(
          (0): ConvBNActivation(
            (0): Conv2d(40, 240, kernel_size=(1, 1), stride=(1, 1), bias=False)
            (1): BatchNorm2d(240, eps=0.001, momentum=0.01, affine=True, track_running_stats=True)
          )
          (1): ConvBNActivation(
            (0): Conv2d(240, 240, kernel_size=(5, 5), stride=(1, 1), padding=(2, 2), groups=240, bias=False)
            (1): BatchNorm2d(240, eps=0.001, momentum=0.01, affine=True, track_running_stats=True)
          )
          (2): SqueezeExcitation(
            (fc1): Conv2d(240, 64, kernel_size=(1, 1), stride=(1, 1))
            (fc2): Conv2d(64, 240, kernel_size=(1, 1), stride=(1, 1))
          )
          (3): ConvBNActivation(
            (0): Conv2d(240, 40, kernel_size=(1, 1), stride=(1, 1), bias=False)
            (1): BatchNorm2d(40, eps=0.001, momentum=0.01, affine=True, track_running_stats=True)
          )
        )
      )
      (6): InvertedResidual(
        (block): Sequential(
          (0): ConvBNActivation(
            (0): Conv2d(40, 240, kernel_size=(1, 1), stride=(1, 1), bias=False)
            (1): BatchNorm2d(240, eps=0.001, momentum=0.01, affine=True, track_running_stats=True)
          )
          (1): ConvBNActivation(
            (0): Conv2d(240, 240, kernel_size=(5, 5), stride=(1, 1), padding=(2, 2), groups=240, bias=False)
            (1): BatchNorm2d(240, eps=0.001, momentum=0.01, affine=True, track_running_stats=True)
          )
          (2): SqueezeExcitation(
            (fc1): Conv2d(240, 64, kernel_size=(1, 1), stride=(1, 1))
            (fc2): Conv2d(64, 240, kernel_size=(1, 1), stride=(1, 1))
          )
          (3): ConvBNActivation(
            (0): Conv2d(240, 40, kernel_size=(1, 1), stride=(1, 1), bias=False)
            (1): BatchNorm2d(40, eps=0.001, momentum=0.01, affine=True, track_running_stats=True)
          )
        )
      )
      (7): InvertedResidual(
        (block): Sequential(
          (0): ConvBNActivation(
            (0): Conv2d(40, 120, kernel_size=(1, 1), stride=(1, 1), bias=False)
            (1): BatchNorm2d(120, eps=0.001, momentum=0.01, affine=True, track_running_stats=True)
          )
          (1): ConvBNActivation(
            (0): Conv2d(120, 120, kernel_size=(5, 5), stride=(1, 1), padding=(2, 2), groups=120, bias=False)
            (1): BatchNorm2d(120, eps=0.001, momentum=0.01, affine=True, track_running_stats=True)
          )
          (2): SqueezeExcitation(
            (fc1): Conv2d(120, 32, kernel_size=(1, 1), stride=(1, 1))
            (fc2): Conv2d(32, 120, kernel_size=(1, 1), stride=(1, 1))
          )
          (3): ConvBNActivation(
            (0): Conv2d(120, 48, kernel_size=(1, 1), stride=(1, 1), bias=False)
            (1): BatchNorm2d(48, eps=0.001, momentum=0.01, affine=True, track_running_stats=True)
          )
        )
      )
      (8): InvertedResidual(
        (block): Sequential(
          (0): ConvBNActivation(
            (0): Conv2d(48, 144, kernel_size=(1, 1), stride=(1, 1), bias=False)
            (1): BatchNorm2d(144, eps=0.001, momentum=0.01, affine=True, track_running_stats=True)
          )
          (1): ConvBNActivation(
            (0): Conv2d(144, 144, kernel_size=(5, 5), stride=(1, 1), padding=(2, 2), groups=144, bias=False)
            (1): BatchNorm2d(144, eps=0.001, momentum=0.01, affine=True, track_running_stats=True)
          )
          (2): SqueezeExcitation(
            (fc1): Conv2d(144, 40, kernel_size=(1, 1), stride=(1, 1))
            (fc2): Conv2d(40, 144, kernel_size=(1, 1), stride=(1, 1))
          )
          (3): ConvBNActivation(
            (0): Conv2d(144, 48, kernel_size=(1, 1), stride=(1, 1), bias=False)
            (1): BatchNorm2d(48, eps=0.001, momentum=0.01, affine=True, track_running_stats=True)
          )
        )
      )
      (9): InvertedResidual(
        (block): Sequential(
          (0): ConvBNActivation(
            (0): Conv2d(48, 288, kernel_size=(1, 1), stride=(1, 1), bias=False)
            (1): BatchNorm2d(288, eps=0.001, momentum=0.01, affine=True, track_running_stats=True)
          )
          (1): ConvBNActivation(
            (0): Conv2d(288, 288, kernel_size=(5, 5), stride=(2, 2), padding=(2, 2), groups=288, bias=False)
            (1): BatchNorm2d(288, eps=0.001, momentum=0.01, affine=True, track_running_stats=True)
          )
          (2): SqueezeExcitation(
            (fc1): Conv2d(288, 72, kernel_size=(1, 1), stride=(1, 1))
            (fc2): Conv2d(72, 288, kernel_size=(1, 1), stride=(1, 1))
          )
          (3): ConvBNActivation(
            (0): Conv2d(288, 96, kernel_size=(1, 1), stride=(1, 1), bias=False)
            (1): BatchNorm2d(96, eps=0.001, momentum=0.01, affine=True, track_running_stats=True)
          )
        )
      )
      (10): InvertedResidual(
        (block): Sequential(
          (0): ConvBNActivation(
            (0): Conv2d(96, 576, kernel_size=(1, 1), stride=(1, 1), bias=False)
            (1): BatchNorm2d(576, eps=0.001, momentum=0.01, affine=True, track_running_stats=True)
          )
          (1): ConvBNActivation(
            (0): Conv2d(576, 576, kernel_size=(5, 5), stride=(1, 1), padding=(2, 2), groups=576, bias=False)
            (1): BatchNorm2d(576, eps=0.001, momentum=0.01, affine=True, track_running_stats=True)
          )
          (2): SqueezeExcitation(
            (fc1): Conv2d(576, 144, kernel_size=(1, 1), stride=(1, 1))
            (fc2): Conv2d(144, 576, kernel_size=(1, 1), stride=(1, 1))
          )
          (3): ConvBNActivation(
            (0): Conv2d(576, 96, kernel_size=(1, 1), stride=(1, 1), bias=False)
            (1): BatchNorm2d(96, eps=0.001, momentum=0.01, affine=True, track_running_stats=True)
          )
        )
      )
      (11): InvertedResidual(
        (block): Sequential(
          (0): ConvBNActivation(
            (0): Conv2d(96, 576, kernel_size=(1, 1), stride=(1, 1), bias=False)
            (1): BatchNorm2d(576, eps=0.001, momentum=0.01, affine=True, track_running_stats=True)
          )
          (1): ConvBNActivation(
            (0): Conv2d(576, 576, kernel_size=(5, 5), stride=(1, 1), padding=(2, 2), groups=576, bias=False)
            (1): BatchNorm2d(576, eps=0.001, momentum=0.01, affine=True, track_running_stats=True)
          )
          (2): SqueezeExcitation(
            (fc1): Conv2d(576, 144, kernel_size=(1, 1), stride=(1, 1))
            (fc2): Conv2d(144, 576, kernel_size=(1, 1), stride=(1, 1))
          )
          (3): ConvBNActivation(
            (0): Conv2d(576, 96, kernel_size=(1, 1), stride=(1, 1), bias=False)
            (1): BatchNorm2d(96, eps=0.001, momentum=0.01, affine=True, track_running_stats=True)
          )
        )
      )
      (12): ConvBNActivation(
        (0): Conv2d(96, 576, kernel_size=(1, 1), stride=(1, 1), bias=False)
        (1): BatchNorm2d(576, eps=0.001, momentum=0.01, affine=True, track_running_stats=True)
      )
    )
    (avgpool): AdaptiveAvgPool2d(output_size=1)
    (classifier): Sequential(
      (0): Linear(in_features=576, out_features=1024, bias=True)
      (1): Dropout(p=0.2, inplace=True)
      (2): Linear(in_features=1024, out_features=1000, bias=True)
    )
  )
  (proposal_generator): FsodRPN(
    (rpn_head): StandardRPNHead(
      (conv): Conv2d(48, 48, kernel_size=(3, 3), stride=(1, 1), padding=(1, 1))
      (objectness_logits): Conv2d(48, 15, kernel_size=(1, 1), stride=(1, 1))
      (anchor_deltas): Conv2d(48, 60, kernel_size=(1, 1), stride=(1, 1))
    )
    (anchor_generator): DefaultAnchorGenerator(
      (cell_anchors): BufferList()
    )
  )
  (roi_heads): FsodRes5ROIHeads(
    (pooler): ROIPooler(
      (level_poolers): ModuleList(
        (0): ROIAlign(output_size=(14, 14), spatial_scale=0.0625, sampling_ratio=0, aligned=True)
      )
    )
    (res5): Sequential(
      (0): BottleneckBlock(
        (shortcut): Conv2d(
          48, 96, kernel_size=(1, 1), stride=(2, 2), bias=False
          (norm): FrozenBatchNorm2d(num_features=96, eps=1e-05)
        )
        (conv1): Conv2d(
          48, 512, kernel_size=(1, 1), stride=(2, 2), bias=False
          (norm): FrozenBatchNorm2d(num_features=512, eps=1e-05)
        )
        (conv2): Conv2d(
          512, 512, kernel_size=(3, 3), stride=(1, 1), padding=(1, 1), bias=False
          (norm): FrozenBatchNorm2d(num_features=512, eps=1e-05)
        )
        (conv3): Conv2d(
          512, 96, kernel_size=(1, 1), stride=(1, 1), bias=False
          (norm): FrozenBatchNorm2d(num_features=96, eps=1e-05)
        )
      )
      (1): BottleneckBlock(
        (conv1): Conv2d(
          96, 512, kernel_size=(1, 1), stride=(1, 1), bias=False
          (norm): FrozenBatchNorm2d(num_features=512, eps=1e-05)
        )
        (conv2): Conv2d(
          512, 512, kernel_size=(3, 3), stride=(1, 1), padding=(1, 1), bias=False
          (norm): FrozenBatchNorm2d(num_features=512, eps=1e-05)
        )
        (conv3): Conv2d(
          512, 96, kernel_size=(1, 1), stride=(1, 1), bias=False
          (norm): FrozenBatchNorm2d(num_features=96, eps=1e-05)
        )
      )
      (2): BottleneckBlock(
        (conv1): Conv2d(
          96, 512, kernel_size=(1, 1), stride=(1, 1), bias=False
          (norm): FrozenBatchNorm2d(num_features=512, eps=1e-05)
        )
        (conv2): Conv2d(
          512, 512, kernel_size=(3, 3), stride=(1, 1), padding=(1, 1), bias=False
          (norm): FrozenBatchNorm2d(num_features=512, eps=1e-05)
        )
        (conv3): Conv2d(
          512, 96, kernel_size=(1, 1), stride=(1, 1), bias=False
          (norm): FrozenBatchNorm2d(num_features=96, eps=1e-05)
        )
      )
    )
    (box_predictor): FsodFastRCNNOutputLayers(
      (conv_1): Conv2d(192, 24, kernel_size=(1, 1), stride=(1, 1), bias=False)
      (conv_2): Conv2d(24, 24, kernel_size=(3, 3), stride=(1, 1), bias=False)
      (conv_3): Conv2d(24, 96, kernel_size=(1, 1), stride=(1, 1), bias=False)
      (bbox_pred_pr): Linear(in_features=96, out_features=4, bias=True)
      (cls_score_pr): Linear(in_features=96, out_features=2, bias=True)
      (conv_cor): Conv2d(96, 96, kernel_size=(1, 1), stride=(1, 1), bias=False)
      (cls_score_cor): Linear(in_features=96, out_features=2, bias=True)
      (fc_1): Linear(in_features=192, out_features=96, bias=True)
      (fc_2): Linear(in_features=96, out_features=96, bias=True)
      (cls_score_fc): Linear(in_features=96, out_features=2, bias=True)
      (avgpool): AvgPool2d(kernel_size=3, stride=1, padding=0)
      (avgpool_fc): AvgPool2d(kernel_size=7, stride=7, padding=0)
    )
  )
)
[32m[04/07 11:20:08 fvcore.common.checkpoint]: [0m[Checkpointer] Loading from ./output/fsod/finetune_dir/mobilenet_small_1x/model_final.pth ...
[32m[04/07 11:20:08 d2.data.datasets.coco]: [0mLoaded 10 images in COCO format from datasets/coco/annotations/instances_val2017.json
…
